Model: "sequential"
_________________________________________________________________
 Layer (type)                Output Shape              Param #   
=================================================================
 vgg16 (Functional)          (None, 7, 7, 512)         14714688  
                                                                 
 global_average_pooling2d (G  (None, 512)              0         
 lobalAveragePooling2D)                                          
                                                                 
 dense_1024 (Dense)          (None, 1024)              525312    
                                                                 
 dropout_0.25 (Dropout)      (None, 1024)              0         
                                                                 
 output_softmax (Dense)      (None, 2)                 2050      
                                                                 
=================================================================
Total params: 15,242,050
Trainable params: 527,362
Non-trainable params: 14,714,688
_________________________________________________________________
Tuner found the best activation function: leaky_relu
Tuner found the best learning rate: 0.07
Best Model Test accuracy: 98.87%
…
